…
          "base_uri": "https://localhost:8080/"
        },
        "id": "RvmZPXJTGdb5",
        "outputId": "43a8a807-3439-4af8-b4d2-11bbd13ccdc0"
      },
      "execution_count": 48,
      "outputs": [
        {
          "output_type": "stream",
          "name": "stdout",
          "text": [
            "Model: \"sequential_3\"\n",
            "_________________________________________________________________\n",
            " Layer (type)                Output Shape              Param #   \n",
            "=================================================================\n",
            " rescaling_3 (Rescaling)     (None, 180, 180, 3)       0         \n",
            "                                                                 \n",
            " conv2d_4 (Conv2D)           (None, 180, 180, 16)      448       \n",
            "                                                                 \n",
            " max_pooling2d_4 (MaxPooling  (None, 90, 90, 16)       0         \n",
            " 2D)                                                             \n",
            "                                                                 \n",
            " conv2d_5 (Conv2D)           (None, 90, 90, 32)        4640      \n",
            "                                                                 \n",
            " max_pooling2d_5 (MaxPooling  (None, 45, 45, 32)       0         \n",
            " 2D)                                                             \n",
            "                                                                 \n",
            " conv2d_6 (Conv2D)           (None, 45, 45, 64)        18496     \n",
            "                                                                 \n",
            " max_pooling2d_6 (MaxPooling  (None, 22, 22, 64)       0         \n",
            " 2D)                                                             \n",
            "                                                                 \n",
            " conv2d_7 (Conv2D)           (None, 22, 22, 128)       73856     \n",
            "                                                                 \n",
            " max_pooling2d_7 (MaxPooling  (None, 11, 11, 128)      0         \n",
            " 2D)                                                             \n",
            "                                                                 \n",
            " flatten_1 (Flatten)         (None, 15488)             0         \n",
            "                                                                 \n",
            " dense_2 (Dense)             (None, 256)               3965184   \n",
            "                                                                 \n",
            " dense_3 (Dense)             (None, 5)                 1285      \n",
            "                                                                 \n",
            "=================================================================\n",
            "Total params: 4,063,909\n",
            "Trainable params: 4,063,909\n",
            "Non-trainable params: 0\n",
            "_________________________________________________________________\n"
          ]
        }
…
